check_pt_critic.pth (torch_old, 568228 bytes, 5 tensors)

fcs1.weight f4 [400, 52]
00000000: 2cd7 873f c835 603f 1d40 eebc 8d64 9f3c
00000010: 8a9f c03d 3d95 99bb b8b4 97bd 68d2 77bc
00000020: 13b6 243f ba1d 533f 7d51 dfbc 7831 4bbe
00000030: 39d8 b0bc ddaf 06be b0e1 0ebd e7cb 04be
00000040: ee62 773f 2836 4d3f be4e 97bd b678 24bd
00000050: fa83 7cbe f65d 38bf 9415 3bbd d690 5ebd
00000060: 3130 e63b 74ca 773f 01f2 09bd 4569 923d
00000070: fa97 d6bd 20d4 4f3b 3909 cd3c b93d 883d
00000080: 5c51 e23c ead2 823f 1d09 8fbd 3035 32bd
00000090: 1f28 a8bc f467 5abe cdc6 84bc cbf6 a03c
000000a0: aec3 533b fc6d 813f 9d7a 8dbd 578d ad3d
000000b0: 1286 363e 54dd 2cbf 4bb4 a8bd 03fb 513d
000000c0: 9dff 823e 26b8 2fbe fb5b c83e a7c2 a23e
000000d0: 303e c03e 4e0b bc3e fb7c 23bd 4137 91bb
000000e0: d8fd 403e ea45 77be 1cc8 5b3c 0bd4 733d
000000f0: 1248 853e 7560 593e f977 1dbc cf51 4f3d
00000100: 0c49 9bbc 4f84 b3bd ef69 c0bc 46e8 17bb
00000110: 5160 3a3e 98df 6e3e 7a99 55bd e831 09bd
00000120: cbce a3be 05a6 b0bd 4363 a8bc 5c3c 09bd
00000130: 404b cd3e 9a00 0b3e 0297 f6bc 5907 0f3e
00000140: e6a8 3abe 4714 7dbe 6966 82bd 8dcf 993d
00000150: 9208 943e 4176 c53d 32c4 23bd 1d48 2abc
00000160: 2037 593d 6551 e6bd 00bb 10b9 b9ad 9dbd
00000170: 9f87 8e3e 38cf ed3d d7da 66ba d7de 6f3d
00000180: 7b29 aa3e c84d 1fbd f067 45bd 04c7 3d3d
00000190: b9b2 20be 6f3d e53d eeb9 95be 1a71 4c3d
000001a0: ed72 5a3e 6c3c 573d dc3c dc3a d3d7 6c3d
000001b0: 279b e1bc f313 2ebe b979 63bc c9fa 193d
000001c0: 4112 0a3e dd0d 113e 7190 5aba b514 0abd
000001d0: 55bb 57bd 0580 15be 78d2 f3bc d1ef be3c
000001e0: cc4b 243e c7c5 e23d e65b 8abc d7f0 68bc
000001f0: 0db3 a13d 1591 31bd ebba f83a c9a7 a6bd
00000200: e6ca 0c3e 520a 7e3c 6f33 03bd dae3 203c
00000210: 31c5 7b3d 1acf 74be 853a 94bb f633 183c
00000220: d57a 3c3e a976 8e3d 4a40 debc 68a5 91bc
00000230: 9d54 353d 1b08 33be a526 2ebc 0a28 2e3c
00000240: 92fd 423e 67a7 e13d 84d3 cf3c 4511 0b3d
00000250: bff3 8bbd 7065 dbbd e952 80bd 8af9 903d
00000260: 222e e63d 4bed b13d ae78 cbbc 9136 67bd
00000270: e434 ad3e 7b98 d63e a157 adbc 2d47 e03b
00000280: bcc1 263e 2701 5fbf 5b56 90ba 01f9 92bc
00000290: fc47 a53e cf45 d43e 74ca c4bd d3c3 863e
000002a0: c8a8 38be 0aea 42bf 771a 06bd bf3b 7d3e
000002b0: e4f4 b53e 9800 ac3e 709c 34bd 45ee bebe
000002c0: 3cb4 f7bd 8128 dd3c b699 3dbc d303 c4be
000002d0: 5336 d83e 5bd6 d23e 917c 4d3d d417 ebbd
000002e0: 7433 34be 27d4 57bf ae12 adbc 6402 f4bd
000002f0: 84a3 c63e 2b51 543e afa6 483d 8234 98bd
00000300: 8840 353e ca74 33bf 33b7 aa3c 9397 7b3c
00000310: b5b6 b03e 1b5f 883e f6df a8bd e247 c13d
00000320: 65b3 213e 8566 e23d 6656 f3bd ccb0 133e
00000330: 3209 373e 31b6 2c3e 0eea 41be 3bc8 293e
00000340: 7feb 323f 5c17 dc3e 7e1e 913c df24 f6bc
00000350: 8a8a d7be dd02 2ebf aee4 fdbc 4333 943c
00000360: 9e4e 0a3f 555f ac3e 8c18 4b3d 50dc 06bd
00000370: 775b e8be 9a30 b23e 881a c33b 036c 8d3c
00000380: ea35 1d3f a2c8 a93e 5741 29bc b64a b23c
00000390: 5046 eabe c95f e73e ee8f 353d 79b2 bd3c
000003a0: 8d6f 053f 0a81 d93e e7db dabc 79d2 1fbc
000003b0: 0a52 f53e 955a 29bf f035 2b3c 42bf 7fbd
000003c0: d5a0 943e 2a1d 343e cb3b bdbb ab68 6d3d
000003d0: 0b65 e03e 248e cb3e 4877 92bc 8267 48bc
000003e0: b7f8 8f3e 2d1b 453e edb4 70ba 7c58 00bc
000003f0: a607 013f 87f4 ec3e ca18 e8bc ae16 693d
1.061254 0.87582064 -0.029083306 0.019457126 0.0940543 -0.00468698 -0.07407516 -0.015125848
0.64340323 0.82467234 -0.027260536 -0.1984309 -0.021587478 -0.13153024 -0.0348832 -0.12968408
0.9663533 0.8016076 -0.07388066 -0.04015418 -0.2465972 -0.72018373 -0.045674875 -0.054337345
0.007024788 0.96793294 -0.03367806 0.07148985 -0.10478206 0.003171213 0.025028812 0.06652398
0.027626686 1.0220616 -0.0698416 -0.043507755 -0.020526944 -0.21328717 -0.016208077 0.01964893
0.003231268 1.011169 -0.06908152 0.08474224 0.17824581 -0.6752522 -0.08237513 0.051264774
0.25585642 -0.17160091 0.39132676 0.31789133 0.37547445 0.36727375 -0.039914113 -0.0044316356
0.18846834 -0.24147764 0.013414409 0.05952839 0.26031548 0.21228202 -0.009611123 0.050615128
-0.01895573 -0.0876547 -0.023488013 -0.0023179217 0.18200804 0.23327482 -0.05214832 -0.03349486
-0.31993708 -0.08625416 -0.020555144 -0.03350483 0.40096474 0.13574448 -0.030101303 0.13967647
-0.18228492 -0.24714766 -0.063671894 0.0751029 0.2891279 0.09641696 -0.03998203 -0.01039317
0.053031087 -0.112459935 -0.00013802573 -0.076991506 0.27837846 0.116117895 -0.00088064134 0.058562126
0.33234772 -0.038892537 -0.048194826 0.046332374 -0.15693177 0.11193358 -0.29243416 0.04991255
0.21332903 0.052547857 0.0016802805 0.057823014 -0.027539803 -0.16999798 -0.013884001 0.037592683
0.13483526 0.14165445 -0.00083375635 -0.033711154 -0.052668888 -0.14599617 -0.029763445 0.023307713
0.16044539 0.11072879 -0.016889524 -0.014217577 0.07895479 -0.04335125 0.0018976604 -0.08137471
0.13749275 0.01550539 -0.032031473 0.009819949 0.061467353 -0.23907128 -0.0045235776 0.009289732
0.18406232 0.069562264 -0.027130265 -0.017779067 0.044270147 -0.1748356 -0.010629331 0.010629663
0.19042042 0.110182576 0.025369413 0.033952016 -0.068336 -0.10712707 -0.06265814 0.07078846
0.11239268 0.08687838 -0.024837818 -0.056448523 0.33829415 0.41913208 -0.021159949 0.0068444223
0.16284841 -0.87111133 -0.0011012064 -0.017941 0.32281482 0.4145951 -0.09608927 0.26321277
-0.18033135 -0.76138365 -0.032740083 0.24729823 0.355384 0.33594203 -0.044094503 -0.3729116
-0.12094924 0.026996853 -0.011572292 -0.38284168 0.42228946 0.41179165 0.050167624 -0.11479154
-0.17597753 -0.84308094 -0.021127071 -0.119145185 0.38796628 0.20734088 0.048987087 -0.0743189
0.17700398 -0.7010008 0.02083931 0.015355962 0.34514394 0.2663506 -0.08245842 0.09437539
0.1579109 0.1105471 -0.118817136 0.14422911 0.17874601 0.16866376 -0.18936941 0.16580288
0.6989059 0.42986572 0.017714735 -0.030046878 -0.42097884 -0.6797312 -0.030992832 0.01809085
0.5402621 0.33666483 0.049583957 -0.03292495 -0.45382282 0.34802705 0.0059540905 0.017263418
0.6141039 0.33160883 -0.01033052 0.02176414 -0.4575677 0.45190266 0.044326715 0.023156391
0.5212334 0.42481261 -0.026716186 -0.00975477 0.47914153 -0.6615384 0.010449871 -0.062438257
0.29028955 0.1758925 -0.00577495 0.057961147 0.4382709 0.39756882 -0.017879143 -0.012231709
0.28119442 0.19248648 -0.00091822335 -0.007833596 0.50402296 0.4628031 -0.028332133 0.056906395

fcs1.bias f4 [400]
00000000: fe32 7bbe e7a8 0abf a1e8 a4be b57c 83bf
00000010: e2ed 34bf 030d c2bd 1b97 a0bd 44a3 16bf
00000020: 8cef 55bc 5dd2 35be 12d2 24bf 5ce9 f5be
00000030: ce7d b9be 0af3 52be 25b6 bebe e486 283f
00000040: 91fe e5be 2956 04be 1f42 13bf 600c 65be
00000050: 18c1 84be 691e 57bf b8bb 4abe 448d b1be
00000060: eb34 643f a803 44be 789d abbe b7f2 9cbe
00000070: 7bd6 9ebe da23 74be b3cd 47bf 25f6 41bf
00000080: 978d b6be 7153 94be 7f37 c7be 20e7 c6bd
00000090: bf41 a5bd f949 2cbf 5843 8bbe 6865 fdbd
000000a0: d6e5 c13d 2b2d 24be 9920 25be 76b9 82be
000000b0: 3fd0 34bf 5652 6fbe 429b acbe cc64 afbe
000000c0: 8b5b 653e d16f c43d f277 c8be 983f 3cbe
000000d0: ad50 a9be c258 9cbe 30be 1bbe 50fc f4be
000000e0: 7b1c 13bf bd2e 89be a699 a6bc dee0 213f
000000f0: 8dfa 553f adc5 b6be 4da2 54be 14f5 443c
00000100: 358a 72be 97af cebe 6cf4 b9be 99b3 e7be
00000110: 9775 91be 5ca9 0abf 4e29 96be 3534 203d
00000120: f47e 3bbe 628b efbe 9faf 5bbf e943 96be
00000130: 42da 46be 335a a3be dcdd 4ebe d222 f3bc
00000140: 3906 01bf b625 8dbe 70ab 83bd 30b3 84be
00000150: 43de a5be 7ce0 a23e 04a1 4ebf 6ff1 f7bd
00000160: a4fc e7be 0c97 babe 7cd6 ecbe 3e34 12be
00000170: e7ff b2be c9f1 17bf e803 a7be 5546 93be
00000180: 9685 f5be dfea 03bf 4064 17be eacd 93bc
00000190: 89aa 12be 5c00 3ebf b3ee 3ebe 13ea d9be
000001a0: deff 4fbf 5087 21bf b10b f6bd 0264 abbe
000001b0: b5a0 13bf 2d85 36bf 24a6 c43e 67d4 22be
000001c0: d6ef a3be 2990 31be 7084 a2be e918 8cbe
000001d0: 335f eebe 392b 8bbe a74d 48bf 762a 9bbe
000001e0: e73d e4be 77b3 c5be 7303 43be d970 85bd
000001f0: 7128 33be 9524 fdbe 7994 efbd 3f66 cbbd
00000200: efaa 81bd cd4d d1be b5df 74bd 9513 c5be
00000210: 74c5 36be 7a29 3ebe 0ee0 79be e7b1 83be
00000220: 6bc2 ccbe 5ad4 c2be a078 5abe ed02 46be
00000230: cd55 b3bd 5318 69be e638 6dbe f8c4 533e
00000240: 181c 1abf c848 b8bd 88d1 17bf 96be 3dbe
00000250: c83d 20be 6b4a 04bf 1445 36be b99b 01bf
00000260: 4d07 82be e045 19bf f3d1 cdbe 9927 f5be
00000270: 0e76 b6bd 3e4f a0be ac07 abbe 5c95 b3be
00000280: 751b c0be b370 7ebe f53c 0fbf 4e47 94bd
00000290: 86d5 5dbe 030f 8bbe 6162 a6be 1edf adbe
000002a0: acdf 9ebe ae3e b9be 2dc5 4b3e 6eb4 4cbd
000002b0: c4a8 05bf 7aac a4be 2305 0fbe 5c91 0fbd
000002c0: fe48 bbbe dda7 8ebe ef3b 6bbf 02ff a5be
000002d0: fdb8 56be c671 c6bd eaf8 35bf a194 bdbd
000002e0: cf2a 83be 57d1 c1be 79f4 a8be 5ff0 17bd
000002f0: 576e 58bd 4bfe 2cbe 3b30 2bbe b0ae 4dbc
00000300: 489a 82be 1d08 aebe 4d33 80be 1c00 5abf
00000310: 94e9 04bf 2a1e 89be a100 99bd 4186 84be
00000320: 863f 9bbe 38a8 a43d 0847 21be 9d71 39bf
00000330: f064 41be 708c 9abe 4ce2 a2be b69f fabe
00000340: 64fa 13bf 4b60 60be c347 4fbe 0dcc 35bf
00000350: 90ea 41be 3e47 f6be 6d83 f4bd dff3 06bf
00000360: 993a aabe 518b 87be 62dd 8cbe 941b c8be
00000370: a8e3 07be f2a6 90be 1a71 c0be 49fc a0be
00000380: ba71 4abe 19c3 7ebe 962e aebe d932 f9be
00000390: 2111 24bd 0750 95be 1e28 05bf 8626 5abe
000003a0: 6f77 85be 1c74 78bf db95 80be 43e4 19bf
000003b0: 0d42 adbe d5e3 793b 47e6 923e 05f7 93be
000003c0: a1b9 69bf 12f2 afbe 26f0 15bf b8d1 eebe
000003d0: 13ea 76be 6ecd 8dbe 1cf5 c4bd a855 debe
000003e0: e608 5fbe a05d d5be fa1b c9be dfca 69be
000003f0: 1b73 efbe cfde 443f 126b 98be bd22 5cbb
-0.2453117 -0.54163975 -0.32208732 -1.0272433 -0.7067548 -0.09475138 -0.07841321 -0.58842874
-0.013057601 -0.17756028 -0.6438304 -0.48029602 -0.36228794 -0.20600525 -0.3724834 0.65830827
-0.4492078 -0.12923492 -0.5752277 -0.22368002 -0.2592857 -0.8403078 -0.19798172 -0.3467809
0.89143246 -0.1914202 -0.33518577 -0.30653927 -0.3102301 -0.23841801 -0.7804825 -0.7576621
-0.356549 -0.2896991 -0.38909528 -0.09712052 -0.08069181 -0.67300373 -0.27199817 -0.12372857
0.09467666 -0.16032855 -0.16125716 -0.2553212 -0.7063026 -0.23371252 -0.33712202 -0.3425659
0.22398202 0.0959164 -0.3915401 -0.18383634 -0.33069363 -0.30536467 -0.1520927 -0.4784875
-0.5746533 -0.2679347 -0.020336937 0.63233745 0.83585435 -0.3569769 -0.20765038 0.012021322
-0.23685534 -0.4036834 -0.36319292 -0.4525421 -0.28410026 -0.5416467 -0.29328388 0.03911229
-0.18310148 -0.46786028 -0.8581485 -0.29348686 -0.19419196 -0.31904754 -0.2020182 -0.02967969
-0.5040012 -0.27567834 -0.064291835 -0.2591796 -0.32396135 0.31811893 -0.8071444 -0.12106597
-0.45309937 -0.36443365 -0.4625739 -0.14277741 -0.34960863 -0.5935331 -0.32620168 -0.28764597
-0.4795348 -0.5153026 -0.14784336 -0.018042523 -0.14322866 -0.742193 -0.18645744 -0.42561397
-0.812498 -0.63097095 -0.12013949 -0.33474737 -0.57667094 -0.7129696 0.38408005 -0.15901338
-0.32018918 -0.17340149 -0.31741667 -0.27362755 -0.46557006 -0.27181414 -0.7824349 -0.30305833
-0.44578478 -0.38613483 -0.19044285 -0.065156646 -0.17495896 -0.49441972 -0.11698241 -0.09931611
-0.06331431 -0.4087967 -0.059783656 -0.38491502 -0.1784876 -0.1857051 -0.24401876 -0.25721666
-0.3999208 -0.38052636 -0.21335077 -0.19337054 -0.087565996 -0.22763185 -0.23166236 0.20680606
-0.6019912 -0.08998257 -0.59304094 -0.18529734 -0.15648568 -0.5167605 -0.17799789 -0.5062824
-0.25396195 -0.59872246 -0.4019924 -0.47881773 -0.08909236 -0.31310457 -0.3340429 -0.3507489
-0.37520948 -0.24847679 -0.5595239 -0.07240163 -0.21663484 -0.2715989 -0.32496932 -0.33959287
-0.31030023 -0.36180633 0.19899435 -0.04997676 -0.5221064 -0.3216284 -0.13966803 -0.035050735
-0.36579126 -0.27862445 -0.91888326 -0.32421118 -0.20969005 -0.09689669 -0.7108294 -0.09256864
-0.25618598 -0.37855026 -0.32999018 -0.03709447 -0.052839603 -0.1689388 -0.16717617 -0.012553856
-0.25508332 -0.33990565 -0.2503914 -0.85156417 -0.5191891 -0.26780826 -0.07470823 -0.25883678
-0.30321902 0.08039898 -0.15749753 -0.72438985 -0.18886161 -0.3018527 -0.31813276 -0.48949975
-0.5780394 -0.21911733 -0.20242219 -0.7101448 -0.18937135 -0.48101228 -0.1193913 -0.5271587
-0.3324783 -0.26473477 -0.27512652 -0.3908354 -0.13270438 -0.2825237 -0.3758629 -0.31442478
-0.19769946 -0.24879111 -0.34019917 -0.48671606 -0.040055398 -0.2916262 -0.5201434 -0.21303758
-0.26067683 -0.9705217 -0.2511433 -0.60113925 -0.33839455 0.0038130183 0.28691313 -0.28899398
-0.9129887 -0.34364372 -0.5856956 -0.46644378 -0.2411273 -0.27695793 -0.096170634 -0.43424726
-0.21780738 -0.41672993 -0.39279157 -0.22831295 -0.46767506 0.7690248 -0.29769188 -0.0033590042

fc2.weight f4 [300, 400]
00000000: fac0 363d 7919 8c3c 46c1 a4ba 973f c6bc
00000010: db63 ecbc dc0a 89bd 6e4b 61bd 947f 25bd
00000020: 5c8e b2bc 8464 933c 479d abbd 8adb 953c
00000030: ad95 fbbc ac29 cabc 96e7 f4bc 0974 dfbd
00000040: 7113 b43c 0ad3 1c3d 9295 a33c 01ea 00bd
00000050: ec52 cb3c 41e9 f6bb 69fa 5cbc 85be 81bd
00000060: 90ec 0cbc 3f93 5dbd 91c1 2a3d dbc8 c1bc
00000070: 02b4 75bd f911 12bd c28c 0f3c 9e0d e1bc
00000080: 631b 183b e8d8 823c 171f f33b 0264 203d
00000090: 509a 43bd 5e69 acba f47a ddbb 04a6 593d
000000a0: a81d 70bd a6b7 023d 1360 183c dc62 38bd
000000b0: 2d7e d7bb 808d 243d 717f 783c 179b a1bc
000000c0: f683 bfbc ec83 06bb d7d3 11bd cd11 4dbd
000000d0: 1b31 113d ef8c 293c 1738 6bbd a7d8 943a
000000e0: e26e 09bd 44ed 353c cc34 3d3d 48d0 9cbc
000000f0: d33c 94bd 5ff6 d03b 4379 ad3b 25a8 243c
00000100: f17b 07bd 05b0 6dbc d207 063c 0487 383b
00000110: 7380 1dbc 95c7 3dbd 23e9 6bbb ce11 4abd
00000120: c100 1e3d 10b3 2abd 028e 5fbd a605 6dbd
00000130: 1e95 283d 64bc 19bd 1a15 09bd af85 323d
00000140: 80ae d2bc 47f7 0cbd 67f2 66bd 3a9f 20bd
00000150: 1d0b 413d 11d4 dcbd 80f0 d33b c0db 433d
00000160: 5d16 0d3c 970f 103d fc63 aebc 05fb 5dbd
00000170: ed2c 743c 81f0 b2bc e4e3 d83c be7a a63c
00000180: 499d 3dbd c6bc 9dbc 5776 8dbd 9d3f 473c
00000190: f716 45bb 75ff 1b3c 4e16 773c 4d34 103d
000001a0: 2a62 043d 672f 35bd 3856 fc3c 0297 6abd
000001b0: 4bbe bb39 c955 3fbd 0d80 8abd 8b59 923c
000001c0: 6da2 46bd 06d5 0dbd cfd2 f83c f28e 0d3d
000001d0: 0b8d ad3c 755a 203d 3cf7 8b3c 0dde b1bb
000001e0: 6bd8 fdbc f554 6fba 0f4d 70bd b4ff d3bc
000001f0: f4e0 413d 4ca2 c1bc 0a8b 0d3d b5b6 56bd
00000200: 045f 03bd c6f2 06bd 0419 acbd 47e7 c03c
00000210: 4d87 7dbd 4d7c a1bb 8c5c 05bd ee52 0bbd
00000220: 234f 293d 5645 29bd 0db0 4dbd 296a 03bd
00000230: 66f7 af3b 4fc0 2c3c b310 78bd 1fbf b7bc
00000240: bf61 8cbc 91c4 12bd 70d6 193d 287f 82bb
00000250: 7d69 ce3c 5ba0 9bbc 1b63 3b3d 617e 38bd
00000260: 3a93 4ebd 4d5e 60bd dfee 75bd e7a9 0cbd
00000270: 154b 463d 6b56 2cbd b972 82bd 076a 143d
00000280: b7ca 51bc 6933 e8bb ecc7 7bbd 1758 54bd
00000290: 33b0 84bd 1063 5cbd a097 86bc 5678 0d3d
000002a0: 371d 31bd 25fa 943c ab19 5dbc 4084 73bc
000002b0: 80ff 0a3d dfd5 5fbd 30f9 4abd c05b 78bc
000002c0: af75 2abd bd6a 14bd c001 98bc dece 37bd
000002d0: bf2c 44bd 97b5 0c3b e9a9 43bd d5e7 e43c
000002e0: 7ecd 043b a3fe cf3c 5c48 e43c 0b2b 6dbc
000002f0: b73b 8fbc 4d6c e43c 2df9 3c3d 0140 25bd
00000300: 17ba 56bd cd3d ceba 00d6 333d 06fd 5bbd
00000310: 72d5 fb3c ef67 80bd db69 75bd 74dc 72bd
00000320: 6ffc 53bd cc22 a83c 80d6 943c 6805 f73c
00000330: 476b 49bd feff a7bc 2231 94bc ec25 08bc
00000340: 9584 bbbb d807 0abd 6758 abbc 1bb1 9ebc
00000350: 3e3f cebb 88fb f7bc e600 363c 51f3 96bd
00000360: 164c f83b f66b 2a3d 04c6 2a3d e983 913b
00000370: 7101 143d ace4 a5bb 840d 21bd 2402 5b3c
00000380: 01f4 00bb 8d2a 6f3a 3fd7 35bb cf67 12bc
00000390: d9e0 89bc ebde 843c 21b7 343d 3a2e 1abc
000003a0: 16fa 153b b1f9 03bd 149e 04bd 5ae5 6abd
000003b0: 79b1 4bbd 73ab 89bc bed0 fbbc cef4 bebc
000003c0: 4718 be3c a8d8 1f3d 0676 0ebd 6764 88bc
000003d0: 1b24 2cbd 71c7 2fbd afb1 1fbd 6274 d7bc
000003e0: b5a9 53bd 7aa6 64bd 9c0f 323c 3110 0c3d
000003f0: 48eb b0b9 ea54 a9bd 38bd 223d 5674 3dbd
0.04461763 0.01710199 -0.0012569807 -0.024200244 -0.028856209 -0.066915244 -0.055003576 -0.04040487
-0.021796398 0.017992266 -0.08379608 0.018293161 -0.03071102 -0.024678074 -0.029895585 -0.10910804
0.021981927 0.0382872 0.019968782 -0.031473164 0.024819814 -0.0075351303 -0.013487437 -0.06335167
-0.008601323 -0.054095503 0.041688506 -0.023655346 -0.059986122 -0.03566167 0.008761587 -0.027472313
0.0023209683 0.01597257 0.0074194777 0.039157875 -0.047754586 -0.001315396 -0.006759042 0.05313684
-0.058622032 0.031913422 0.00930025 -0.045016155 -0.0065763206 0.040174007 0.015167103 -0.019727273
-0.023378354 -0.002052541 -0.035602417 -0.050065804 0.03544722 0.010348543 -0.05742654 0.0011356071
-0.03355301 0.011103932 0.04619293 -0.019142285 -0.07238164 0.006377026 0.0052939965 0.010049854
-0.033077184 -0.014507298 0.008180575 0.0028156647 -0.009613144 -0.046332914 -0.0035997115 -0.049333386
0.038574938 -0.041674674 -0.05457879 -0.057866715 0.041157834 -0.03753318 -0.03346739 0.04358452
-0.025717974 -0.03441551 -0.056383517 -0.03921435 0.04712974 -0.10782636 0.006467879 0.04781699
0.008611289 0.035171118 -0.02128791 -0.05419447 0.014903289 -0.021843197 0.026475854 0.0203222
-0.046292577 -0.019255053 -0.06907337 0.012161163 -0.0030073503 0.009521355 0.015081001 0.035206128
0.03232018 -0.04423466 0.030802831 -0.05727292 0.000358092 -0.04671267 -0.06762705 0.017864963
-0.048494745 -0.034626983 0.030373959 0.03456015 0.021185419 0.039148767 0.017085664 -0.005428082
-0.030986985 -0.0009129786 -0.05866724 -0.025878765 0.047333673 -0.02363696 0.034556426 -0.052420337
-0.032073036 -0.03294637 -0.08403209 0.023547782 -0.06189661 -0.004928148 -0.032558963 -0.034014635
0.041335236 -0.04132589 -0.050216723 -0.032083664 0.0053700684 0.010543897 -0.0605628 -0.02243
-0.017136453 -0.03583199 0.03755802 -0.0039824434 0.025196785 -0.018997362 0.04574881 -0.0450424
-0.050433375 -0.054777432 -0.06004226 -0.03434172 0.048411448 -0.042074602 -0.06369538 0.036233928
-0.012804679 -0.0070862067 -0.061469957 -0.05184182 -0.0647892 -0.05380541 -0.016429722 0.03453859
-0.043240752 0.018185684 -0.013494889 -0.014863074 0.03393507 -0.054647323 -0.04955405 -0.015158594
-0.041616138 -0.036234606 -0.018555522 -0.04487502 -0.047894236 0.002147054 -0.04776946 0.027942577
0.0020264084 0.025389975 0.027866535 -0.014475594 -0.017484529 0.027883673 0.04613607 -0.040344242
-0.052423563 -0.0015734971 0.04390526 -0.0537081 0.030741427 -0.06269824 -0.059915405 -0.05929227
-0.05175441 0.020524405 0.018168688 0.030153945 -0.049174573 -0.020507809 -0.018089835 -0.0083098225
-0.005722592 -0.033698887 -0.020916177 -0.01937156 -0.00629416 -0.030271307 0.011108613 -0.07370628
0.0075774295 0.041606866 0.04169275 0.0044407737 0.036134187 -0.00506266 -0.03931953 0.01336721
-0.0019676688 0.0009123467 -0.0027746705 -0.008935883 -0.016830849 0.016219577 0.044119958 -0.009410435
0.0022884659 -0.032220546 -0.032377318 -0.057347633 -0.049729798 -0.016805386 -0.030739184 -0.023310091
0.023204936 0.03902498 -0.034780525 -0.016649438 -0.04202662 -0.04291481 -0.03898781 -0.026300613
-0.051675517 -0.055822827 0.010867979 0.03419513 -0.00033744634 -0.08268149 0.039731234 -0.046253525

fc2.bias f4 [300]
00000000: d31a 8abd 1564 e6bc 6f8a 17be 4941 41bd
00000010: 24ea e9bd 479d 02be 813d 18be 3aad babd
00000020: 8607 18bd 97c8 a9bd c34b d3bd 7d06 f7bd
00000030: a613 aabd 075a 1cbe d213 d8bd c0b5 8fbe
00000040: 62b8 b7bd 3116 fdbd 64f7 34bd 8bb2 e73e
00000050: b648 b2bd a407 dabd 98d9 02bd 2076 0ebe
00000060: 420b e4bd d317 12bd 3ee7 94bd ca59 03be
00000070: 5a47 d0bd 86e7 00be 93b5 c5bd 4426 edbd
00000080: d9f2 f3bd 770e ef3d 940b f83d d2d3 adbd
00000090: aad6 cfbd 97f5 253e 29e9 13bd 3935 5dbd
000000a0: 3b0a 92bd 1b8b d8bd c047 88bd 5de6 f3bd
000000b0: 6967 54bd 1dff cabd ff8b 9ebd cccb 8fbd
000000c0: 5fbc 17be 78b0 c3bd ff77 edbd 484c c4bd
000000d0: 0f88 e5bd 0fa1 16be 11c3 06be 1177 babd
000000e0: 3346 2ebe 0eb7 02be 92d5 68bd e838 b8bb
000000f0: dec6 68bd bb48 fdbd d382 fdbd 03fa 76bd
00000100: 22a7 5fbd c0e8 d5bd d7d9 90bd 6aed 99bd
00000110: b8d5 16be a893 babd 6a88 cdbd 97f5 343f
00000120: 9e60 aebd 095a 5cbd 6729 dfbd db72 81bd
00000130: 9811 e7bd 0e08 a0bd b977 0dbe bc9b cabd
00000140: 04e6 a4bd 2c17 31be 3df5 f2bd 859e 75bd
00000150: 595e 5bbd 5505 6fbd 0750 c1bd 62cd 5dbd
00000160: 4a94 fcbd 0f76 10be 8a76 82bd 0fa0 80bd
00000170: 6c70 01be b43c eebd 62b8 8fbd f14f a0bd
00000180: 4d86 a8bd 386a 20bd 6e74 1ebb 0498 a4bd
00000190: bf6e 25bd 30cf 93bd 4474 bfbd d8fb 00be
000001a0: b98e 56bd 3aae 9abd 2cfd 8cbd 8a22 e6bd
000001b0: 500f aabc f151 99bd fd09 b6bd a612 97bb
000001c0: afd1 78bd b925 7bbd 11a9 adbd 37e3 0bbe
000001d0: 3144 bebd 3792 f0bd a87b f4bd 96e6 3abd
000001e0: d81d 51bd b454 afbd 7a32 d3bd 71d9 86bd
000001f0: 5d1e 07be 289d 36bd c4de c2bd 7c80 78bd
00000200: ab22 a3bd ba6d 1fbe 7749 c33e 89c5 a6bd
00000210: c4f8 0cbe a8c4 91bd 9bb3 9ebd 133a 14be
00000220: 370f 73bd de45 c7bd 6db3 e0bd 35d2 b5bd
00000230: 9def ffbd 35af 96bd cd18 08be 6d1a 9dbd
00000240: aebe 10be f840 8bbd 983b 44bd d0b6 debd
00000250: 5fde a4bd 49fc 81bd 7730 ccbd 6175 e3bd
00000260: c16e 85bd 2a4a b9bd e8ee 7ebd 9952 4fbe
00000270: 8403 cfbd 01b7 4cbd 6815 2dbe 53f8 dfbd
00000280: 4128 d2bd 31e7 eebd 819e 9cbd 45af b5bd
00000290: 7e24 08bd f3ab b3bd 6078 c6bd cd53 d1bd
000002a0: c465 9ebd d54e e8bd b43a 29be 154b b4bd
000002b0: 3a07 c5bd ed97 b3bd b100 bcbd 9625 e3bd
000002c0: 0271 b1bd 42ee d1bd 81ec d3bd 8e03 0ebd
000002d0: 60b5 34be 8f2b 98bd 30da cfbd b994 2abb
000002e0: b945 06be 2e4f 07be 332f 0dbe 7c40 9abd
000002f0: 9af7 a6bd 3dca bfbd 5f30 fbbd 60db 00be
00000300: af78 92bc 6867 d9bd a2b5 88bd 5b44 d1bd
00000310: bb18 49bd 69ab 83bd 6e79 e5bd c259 58be
00000320: dd8d d4bd 3622 71bd 1fc2 93bd 955a 1bbe
00000330: 4127 d9bd 7601 8abe dff3 9bbd d348 f7bd
00000340: 45c2 8cbd 9188 d8bd 11a5 cbbd 41d2 d2bd
00000350: 39ef 76bd 71da 3abc cb93 2fbe 7838 88bd
00000360: 846e cfbd 9cc4 1fbe 0a70 92bd 74aa c4bd
00000370: aedb 06bd fdc1 9ebd 84f9 89bd 347d a6bd
00000380: 3d88 00be 0879 f5bd d9ab 7cbd 47a0 9fbd
00000390: 273f e5bd eb80 6ebd 0193 fbbd 3b2c cfbd
000003a0: 34aa 7d3f a590 70bd a47e cbbd 9393 07be
000003b0: 76fd 09be 01f9 e4bd 7a8d f2bd 28da 89bd
000003c0: b0e2 14be e87b bdbd 7c87 13be 499e 08be
000003d0: bc4f d6bd 8883 4ebd d08c 92bd bbd0 cebd
000003e0: 246c 31bd ac5f fdbd a48a 83bd f8a2 31bd
000003f0: a3d0 59bd ec4b e0bd 5b83 c3bd 222d a9bd
-0.067433976 -0.028123895 -0.14798902 -0.0471814 -0.11421612 -0.12755309 -0.14867212 -0.091150716
-0.03711655 -0.082902126 -0.10317185 -0.120617844 -0.08304529 -0.15268718 -0.105506554 -0.28068352
-0.08970715 -0.12357748 -0.044181243 0.45253405 -0.08705275 -0.106459886 -0.031945795 -0.13912249
-0.1113496 -0.03566725 -0.072706684 -0.1282722 -0.10169859 -0.12588319 -0.09653773 -0.11579564
-0.11911554 0.11672681 0.12111583 -0.08487667 -0.10148366 0.16206966 -0.03611103 -0.054005835
-0.071308576 -0.10573407 -0.0665431 -0.11909173 -0.051856432 -0.0991194 -0.07741546 -0.07021293
-0.14817952 -0.09555143 -0.11595153 -0.09584862 -0.11207592 -0.14709876 -0.1316035 -0.09104741
-0.17018966 -0.12765142 -0.0568443 -0.005622018 -0.05683028 -0.12367388 -0.12378468 -0.060297024
-0.05460275 -0.10444784 -0.070728 -0.07515986 -0.14729965 -0.091101944 -0.100357845 0.7068724
-0.08514522 -0.0537968 -0.10896569 -0.06320735 -0.112826526 -0.07814036 -0.13815202 -0.09892985
-0.080516845 -0.17293996 -0.11863182 -0.05996563 -0.053556774 -0.058354694 -0.09439092 -0.054150946
-0.123329714 -0.14107536 -0.06370266 -0.06280529 -0.12640542 -0.11632672 -0.0701759 -0.078277476
-0.08228741 -0.039163798 -0.0024178284 -0.08036807 -0.04038882 -0.07217252 -0.09348348 -0.12596071
-0.052382205 -0.07552762 -0.06884226 -0.112370566 -0.020759255 -0.07486332 -0.08888624 -0.0046103774
-0.060746845 -0.061315272 -0.084795125 -0.13660894 -0.0929035 -0.11746638 -0.11937648 -0.04563006
-0.05105385 -0.08561078 -0.10312362 -0.065844424 -0.13195176 -0.04458347 -0.095151454 -0.060669407
-0.07965597 -0.15569201 0.38141987 -0.081431456 -0.13766772 -0.07117587 -0.07749101 -0.14475279
-0.059340682 -0.09730123 -0.10971723 -0.088779844 -0.124968745 -0.07357637 -0.13290711 -0.07671056
-0.14135239 -0.06799501 -0.047908396 -0.108747125 -0.080502264 -0.06346948 -0.099701814 -0.111063726
-0.06515265 -0.09047349 -0.062239558 -0.20246352 -0.101080924 -0.049979214 -0.16902697 -0.10936036
-0.10261584 -0.1166519 -0.0764742 -0.08871321 -0.033237927 -0.08773031 -0.096909285 -0.10221062
-0.07734254 -0.11343161 -0.165263 -0.08803383 -0.09620519 -0.08769212 -0.091798194 -0.11091153
-0.08664133 -0.10250522 -0.10347844 -0.03467136 -0.17647314 -0.07430183 -0.10149038 -0.0026028587
-0.13112535 -0.13213798 -0.13787536 -0.07531831 -0.08152695 -0.09364746 -0.122650854 -0.12583685
-0.017879812 -0.10615426 -0.06675269 -0.10218116 -0.04909585 -0.06429178 -0.112048015 -0.2112799
-0.10378621 -0.058870517 -0.0721476 -0.15171273 -0.1060319 -0.2695424 -0.07614874 -0.12074437
-0.068729915 -0.10572923 -0.09943593 -0.10294009 -0.060286734 -0.01140462 -0.17146222 -0.066513956
-0.10128501 -0.15602344 -0.07150276 -0.09602824 -0.032924347 -0.07751844 -0.067370445 -0.08129349
-0.12551971 -0.119859755 -0.061687324 -0.07794242 -0.11193686 -0.058228415 -0.12283898 -0.10115858
0.99087834 -0.058731694 -0.09936264 -0.13239889 -0.13475594 -0.11180306 -0.11843391 -0.06731063
-0.145396 -0.09252149 -0.14407152 -0.13341631 -0.10464427 -0.050418407 -0.07155764 -0.10098406
-0.04331602 -0.123717636 -0.06422928 -0.04336831 -0.053177487 -0.10951981 -0.095465384 -0.082605615

fc3.weight f4 [1, 300]
00000000: 87bd ea3a 7606 a13c 675f 883c e388 633c
00000010: 246a 9abb 1581 e8bc 2cdc a33c f216 1c3c
00000020: b1cf eabc 5e40 f33c 032e 513c f6c0 e93b
00000030: 18f7 e9bc 2cb1 bcbb 05d4 9dbc fdd8 a53b
00000040: 4b43 433c 1e1a 1f3c ef4c ee3c 21fd 84bc
00000050: 1e32 e2bc 1947 adbc bd15 b8bb cedc a7bc
00000060: 05a2 bdbc 0375 98bc ff3c dbbc 4778 fcbb
00000070: 07fe 913c 6601 b23b 4619 39bd 78a7 adbc
00000080: e60c bfbb 5c0d 46bc d497 67bc d252 8bbc
00000090: 3b67 90ba 6285 323c 85c2 89bb 9415 3dbc
000000a0: 0013 dcba f816 1a3c 2d9e 773c 2f8e e63c
000000b0: b93a e3bc 3b15 88bb 68eb d0bb 371e db3c
000000c0: 199c 7d3a ffb4 f6bc 4233 cc3b b18e 96bc
000000d0: c514 b5bc 4bbb 25bc 0bbf 02bc 13ff e83c
000000e0: a0a5 94bc 48cb b73c 71db fbb9 5fb7 c73b
000000f0: 3092 a8bb 9b14 47bc 3402 b2bc 2712 413c
00000100: e887 dfbc 640d 00bd 1ec6 b93c 72e5 f0bc
00000110: 2db7 d23c 5ab9 873b f278 983c d3d7 cdbb
00000120: af55 89bb f4de a53c 5e74 00bd 650a 883c
00000130: be8a a1bc 7e47 893c d93c 80bc d93e b7bb
00000140: d26c 91bc 6c4b e43b 7abb c6ba 97c5 533c
00000150: 56ef a33c c929 dfbc 20b2 473b 99af ae3c
00000160: db44 15bd 4d1e 28bb 52fb 083c 50f0 4f3b
00000170: e15b fdbc 1dfb 083b d279 0b3b e809 833b
00000180: 6e6e b33c 6b55 693b 886c b2bc 89fd 9dbc
00000190: c85e 96bc 009a df3a 9ca0 ff3b 9818 efba
000001a0: 944b be3c 6d4c e03a 58b5 dbba 0c0d 893c
000001b0: 9209 d43c d7d6 dfbb a2c1 a73a f29f 1a3d
000001c0: dde7 5c3c bd1d b13b 30dd a8bb a7e5 42bc
000001d0: b201 65bc 5a99 ab3c cd81 49bb eb4b a93b
000001e0: 278e d13c f27c 6e3b 1d99 aabc afa9 c13c
000001f0: ff82 b83c 613f f43a 91ca 1abc ae47 73bc
00000200: 868c c33b ca78 cf3c d79e 903c 7145 47bc
00000210: c413 a93c 6d06 173a ae21 0cbb 0606 ebbb
00000220: 3b06 5a3c 2534 893c eca6 dfbb a95d d03b
00000230: 8e0e dbbc f7a2 e1bb cc84 bc3c f7d3 003c
00000240: befb b63b 7db0 5fbc 24b9 4e3c e52a 19bb
00000250: fea8 3a3c 1615 9eba 6058 a2bb eeb2 b83b
00000260: 4df7 ad3c 772b 95bc 153c 543c 2731 56ba
00000270: 8587 84bc 8901 9b3c d2ee 0fbc b4f0 f63a
00000280: e7e5 53b9 5da1 963c a276 f3bb 82ad 333c
00000290: 8c89 a7bc bcc8 503c deb8 11bc 972f debc
000002a0: ebec 88bc d3ba 6bbc a883 91bc 8055 75bc
000002b0: 4592 e0bb 8c18 00bd aa63 30bc 7cbd c0bc
000002c0: 9c7a cbbc 2dc0 d7bc 9437 a5bc ad3d 20bc
000002d0: b393 c4bc 4870 51bc d98b 11bb 908e 13bc
000002e0: 3db9 d83c 0643 393c 1642 903c 1e3d 323b
000002f0: fc58 21bc 430b 14bd d0a4 cb3c dcd9 a1bc
00000300: 2c23 f7bb 53d9 c43c 1c72 10bc 0849 cfbc
00000310: 2164 d53b afb2 473c 1681 17bd 1ddf 87bc
00000320: 380b 8739 55b2 c2bc b5f7 a6bc 83d2 f3bc
00000330: a1b2 613c 4526 77bc 0eaf d0bc 75c2 76bc
00000340: 97ff f63c c334 693c fb62 083b 9404 febc
00000350: 9535 d2bb 44e8 83bc ea53 80bc fff3 85bc
00000360: 4a64 82bb 34ce babc a4dc 4d3b b761 cc3b
00000370: 8b57 003c 5e82 acbc 11ee 7e3c 2cc5 bdbc
00000380: 6890 3bbc eb3c 803b ede9 253c 203e 2cbc
00000390: 6c71 efbb 2416 453c b7ad d53c 4a5c 0dbc
000003a0: d40c d13b 3eac 00bd 4833 b5bc 10ae 193c
000003b0: 725e 9dbc 014d 07bc 6af0 47bc a6d5 d73c
000003c0: fe8e 21bb 8cb5 81bc f59d 8a3b 6006 88bc
000003d0: cd4d 633b 65e0 783c 5b13 d43c 12cf 073c
000003e0: 4d2f 1dbc e87d 3d3d 1bde b3bc 845d ab3c
000003f0: 1bf9 0c3c 215a df3c 59a2 b43c 2906 a6bb
0.0017909267 0.019656401 0.016647054 0.013887617 -0.00471236 -0.028381864 0.020002447 0.009526955
-0.028663488 0.029693779 0.012767318 0.0071335984 -0.028560206 -0.005758425 -0.019266138 0.0050612674
0.011917899 0.009710817 0.02908942 -0.016233983 -0.027611788 -0.021152066 -0.005617826 -0.02049103
-0.023148546 -0.018610483 -0.026762484 -0.007704768 0.017821325 0.0054322956 -0.04519012 -0.02119802
-0.005830395 -0.012088146 -0.01413532 -0.017007265 -0.0011017093 0.010896059 -0.0042040967 -0.011540789
-0.001679033 0.00940489 0.015113396 0.02814397 -0.027737962 -0.0041529215 -0.006375719 0.026747806
0.00096744444 -0.030115603 0.0062316963 -0.018378587 -0.02210463 -0.010115455 -0.0079801185 0.028441941
-0.018145382 0.0224358 -0.00048037947 0.0060948576 -0.00514438 -0.012150909 -0.021729566 0.011784113
-0.027286485 -0.03126277 0.022677477 -0.029406283 0.02572211 0.0041419687 0.018612359 -0.006281832
-0.0041911225 0.020247914 -0.031360976 0.016606519 -0.019719478 0.016757723 -0.015654014 -0.005592209
-0.017752085 0.006966999 -0.0015162074 0.012925527 0.020011585 -0.027241604 0.003047116 0.021323966
-0.03644262 -0.0025652826 0.008360701 0.003172893 -0.0309276 0.0020901628 0.0021282327 0.0039989837
0.021903243 0.0035603892 -0.021780267 -0.019285934 -0.018355742 0.0017059445 0.0078011286 -0.0018241582
0.023229398 0.001711262 -0.0016762419 0.016729854 0.02588347 -0.006831031 0.0012798796 0.037750192
0.013483015 0.0054051564 -0.0051533207 -0.011895574 -0.013977455 0.020947147 -0.0030747533 0.005166521
0.025580479 0.0036390391 -0.020824963 0.023640482 0.022523401 0.0018634611 -0.00944771 -0.014848633
0.0059676794 0.025326151 0.017653866 -0.012162552 0.020639308 0.00057611504 -0.002138238 -0.007172349
0.0133071495 0.016748497 -0.0068253186 0.0063588214 -0.026740339 -0.006885882 0.023012541 0.007863036
0.005584209 -0.013652918 0.012617383 -0.0023371514 0.01139283 -0.0012060727 -0.004954383 0.0056365645
0.021236086 -0.018209202 0.012953778 -0.00081707764 -0.016177902 0.01892163 -0.008784967 0.0018840046
-0.00020208173 0.01838749 -0.0074299136 0.01096666 -0.02045133 0.012743171 -0.008894173 -0.027122302
-0.016714534 -0.014387804 -0.017762974 -0.014973998 -0.006853374 -0.03127341 -0.010765949 -0.023527853
-0.024838738 -0.026336754 -0.020168103 -0.00978033 -0.02399621 -0.012783118 -0.00222086 -0.0090061575
0.026455516 0.011307484 0.017609637 0.0027197073 -0.009847876 -0.036143553 0.024858862 -0.019757204
-0.0075420346 0.02402941 -0.008816268 -0.025303379 0.0065121804 0.012188598 -0.03698834 -0.01658588
0.00025757565 -0.023766676 -0.020381788 -0.029763466 0.013775499 -0.015084808 -0.025474098 -0.015061011
0.030151172 0.014233771 0.002081095 -0.031008042 -0.006415079 -0.016101964 -0.015665013 -0.016351698
-0.0039792405 -0.022803403 0.003141203 0.0062372345 0.007833372 -0.021058258 0.015559689 -0.023165308
-0.011448003 0.003913512 0.010126573 -0.010512859 -0.007307222 0.0120292045 0.02608381 -0.00862796
0.006379703 -0.031414263 -0.02211918 0.009379879 -0.019210074 -0.008258105 -0.012203315 0.026346993
-0.002465188 -0.015833639 0.0042302557 -0.016604602 0.0034683824 0.015190219 0.025888136 0.0082891155
-0.009593797 0.04626265 -0.021956494 0.020918615 0.008604313 0.027264656 0.02205007 -0.0050666523
