check_pt_actor.pth (torch_old, 524629 bytes, 6 tensors)

fc1.weight f4 [400, 24]
0.046764404 -0.13741468 0.008118773 -0.014408184 -0.043777138 -0.16698918 -0.024309954 0.03557288
0.038946576 -0.122256175 0.005244628 0.06044756 0.012149466 -0.1603113 0.008238695 0.079085305
-0.04506374 -0.18653975 0.042753458 0.015598006 0.04095107 -0.074346386 -0.0018849267 -0.052442577
0.030513797 0.059402116 -0.0052269762 0.019944001 0.102429286 -0.0446896 0.023140881 0.06609956
-0.001171446 0.08439838 -0.028546 0.084925555 0.024734912 -0.06693577 0.0070891236 0.07565465
-0.030276887 0.06433152 -0.012920592 0.037086163 -0.061767057 0.09217827 0.03767742 0.017723158
0.025291739 -0.0770227 -0.030718077 -0.010014879 0.13459674 -0.025071908 -0.016919138 -0.0006235764
0.06894201 -0.006013792 0.016908055 -0.05176159 0.09739124 -0.052850354 -0.061446685 -0.036747396
0.062767625 0.0023687924 0.008994052 -0.028998232 0.05477976 -0.08064601 0.042270254 -0.068665616
0.0015612087 0.061307892 -0.051031854 0.00019114216 -0.02130537 -0.062312502 -0.044036184 0.004482298
0.018580772 0.08159983 -0.040210396 0.018459732 0.053112768 0.11267474 0.0043432466 0.041646194
-0.022257842 -0.027086208 -0.011681868 0.08112051 0.033167947 0.18963799 -0.0007935733 0.07002496
0.00092474924 0.061773065 0.027107408 -0.020406472 0.035278812 0.061410263 -0.017202815 0.02924242
-0.02521823 0.01771812 -0.04433122 0.04839369 0.06317694 -0.08329296 -0.048673835 0.00571727
0.04486482 0.010017992 -0.031925064 0.030767081 0.07144106 -0.116555855 -0.060399666 0.0015738872
0.093895905 0.059651025 0.0052859355 0.018327177 0.20030682 -0.03383994 0.0007390486 -0.043660946
0.03387873 0.03645411 0.027981833 0.019869892 0.104786605 0.004338696 -0.01757989 0.013296357
0.031548146 0.055112362 -0.037077177 0.037458777 0.013292127 0.14382459 -0.02918324 -0.03565812
0.0068847537 0.0669571 -0.00514425 0.0032031806 -0.0054718317 0.052465577 0.02358144 0.060525313
0.049691025 0.024048055 -0.014660423 0.09714241 -0.049169034 0.06780837 0.03973633 0.082842305
0.05378316 0.04919097 0.00016380404 0.057918258 -0.10565482 -0.0060595856 0.024144214 0.04275117
-0.0490477 0.18130916 0.02879372 0.031708386 -0.018644419 -0.14456636 -0.031671103 -0.023714457
-0.06255796 0.17970784 -0.03128592 -0.08593891 -0.030727489 -0.19203264 0.0073986277 0.010369512
-0.042103726 0.14573856 0.029012302 -0.042373687 0.054942355 -0.1404683 0.014510134 -0.024723036
0.15198846 0.06306536 0.016192451 0.05416356 0.062378664 -0.107991904 0.01033968 0.011445661
0.06151407 0.10351206 0.0070772707 0.014736352 0.08969366 -0.13987817 -0.003394083 0.022379184
0.076403394 0.055647597 -0.00046084423 0.025358444 0.10015267 -0.038666908 0.0019542389 0.053128418
-0.023453174 0.077418074 0.043060306 0.044488404 -0.05046258 0.0054688174 0.018993901 0.007945264
-0.04534323 0.084572524 -0.013192383 -0.0970537 -0.05349736 -0.10482413 -0.02040797 -0.07964652
-0.014137543 0.12683299 0.017268065 -0.0049147294 -6.904354e-05 -0.28931838 -0.038319804 0.015320301
0.04746356 -0.043993592 -0.024549803 0.016192522 -0.05060604 -0.14405833 -0.051402994 -0.040108327
-0.01686836 0.009191695 0.018950691 -0.029339224 -0.057426464 0.0531672 -0.023931483 0.020174904
00000000: 088c 3f3d 6fb6 0cbe 9a04 053c 4e10 6cbc
00000010: a84f 33bd 36ff 2abe ab25 c7bc deb4 113d
00000020: 7286 1f3d 7261 fabd 21db ab3b dc97 773d
00000030: 8e0e 473c a528 24be 97fb 063c 7af7 a13d
00000040: c294 38bd 4704 3fbe 401e 2f3d c78e 7f3c
00000050: 4fbc 273d eb42 98bd a50f f7ba 07ce 56bd
00000060: 12f8 f93c a24f 733d 0e47 abbb 9a61 a33c
00000070: 72c6 d13d 710c 37bd f291 bd3c 355f 873d
00000080: 358b 99ba 0fd9 ac3d 4dd9 e9bc 73ed ad3d
00000090: dfa0 ca3c 9f15 89bd e14b e83b d3f0 9a3d
000000a0: 3c07 f8bc 3ec0 833d e4b0 53bc a9e7 173d
000000b0: 74ff 7cbd f6c7 bc3d a353 1a3d 2830 913c
000000c0: 9f30 cf3c 14be 9dbd 7aa4 fbbc 7215 24bc
000000d0: bad3 093e 9a63 cdbc 019a 8abc 8177 23ba
000000e0: 7831 8d3d 580f c5bb c382 8a3c f603 54bd
000000f0: 0f75 c73d 9d79 58bd 85af 7bbd 7084 16bd
00000100: 508c 803d be3d 1b3b ca5b 133c b38d edbc
00000110: be60 603d bc29 a5bd 9323 2d3d 8fa0 8cbd
00000120: 79a1 cc3a fc1d 7b3d c706 51bd 556d 4839
00000130: 9988 aebc 653b 7fbd 495f 34bd 3ee0 923b
00000140: b436 983c d01d a73d a8b3 24bd dd38 973c
00000150: c68c 593d 04c2 e63d cb51 8e3b 3395 2a3d
00000160: 1456 b6bc e5e3 ddbc 4e65 3fbc 8322 a63d
00000170: 1ddb 073d 7630 423e cd07 50ba 3f69 8f3d
00000180: df6a 723a c105 7d3d 5b10 de3c 792b a7bc
00000190: 8480 103d 5489 7b3d ebec 8cbc cd8d ef3c
000001a0: 7696 cebc 9725 913c a794 35bd 7638 463d
000001b0: e962 813d 8095 aabd 375e 47bd f057 bb3b
000001c0: 2cc4 373d 8122 243c dbc3 02bd 3f0b fc3c
000001d0: b14f 923d d6b4 eebd a465 77bd e44a ce3a
000001e0: 7f4c c03d a254 743d a435 ad3b e022 963c
000001f0: 3b1d 4d3e c09b 0abd b6bc 413a d2d5 32bd
00000200: 6cc4 0a3d e850 153d 283a e53c 2fc6 a23c
00000210: 5c9a d63d 9f2b 8e3b b403 90bc f7d8 593c
00000220: a138 013d 80bd 613d 3dde 17bd 606e 193d
00000230: 39c7 593c c146 133e b111 efbc 400e 12bd
00000240: 8099 e13b ce20 893d 1991 a8bb 74ec 513b
00000250: 0d4d b3bb 25e6 563d dd2d c13c 64e9 773d
00000260: d188 4b3d 6d00 c53c 4532 70bc 9af2 c63d
00000270: 7865 49bd 1ddf 8a3d 90c2 223d 3aa9 a93d
00000280: bb4b 5c3d 787c 493d d0c2 2b39 b23b 6d3d
00000290: 8e61 d8bd 7d8f c6bb 16ca c53c da1b 2f3d
000002a0: 3ee6 48bd 1ca9 393e cfe0 eb3c a7e0 013d
000002b0: 2ebc 98bc 3409 14be 8fb9 01bd d244 c2bc
000002c0: 631e 80bd 5505 383e aa25 00bd bd00 b0bd
000002d0: 37b8 fbbc 34a4 44be 3070 f23b e3e4 293c
000002e0: f574 2cbd 7d3c 153e 35ab ed3c 0890 2dbd
000002f0: 3c0b 613d ecd6 0fbe eabb 6d3c f787 cabc
00000300: dda2 1b3e 6928 813d 08a6 843c 9cda 5d3d
00000310: c580 7f3d dc2a ddbd c367 293c 9586 3b3c
00000320: 2df6 7b3d 22fe d33d 73e8 e73b bd70 713c
00000330: 4fb1 b73d 393c 0fbe 436f 5ebb 8d54 b73c
00000340: 6279 9c3d bcee 633d 779d f1b9 83bc cf3c
00000350: d81c cd3d 3161 1ebd b012 003b 2f9d 593d
00000360: df20 c0bc 5e8d 9e3d 0160 303d 7939 363d
00000370: dab1 4ebd c433 b33b 1999 9b3c da2c 023c
00000380: d3b9 39bd 5c34 ad3d dd24 58bc 17c4 c6bd
00000390: 0c20 5bbd 09ae d6bd 9d2e a7bc b71d a3bd
000003a0: 27a1 67bc 82e0 013e c275 8d3c bd0b a1bb
000003b0: 78cb 90b8 8a21 94be 3af5 1cbd 0002 7b3c
000003c0: 2669 423d a032 34bd ab1c c9bc 2ea6 843c
000003d0: 4748 4fbd 0784 13be f28b 52bd a148 24bd
000003e0: 842f 8abc c398 163c 7b3e 9b3c d058 f0bc
000003f0: 0338 6bbd dac5 593d f50b c4bc d745 a53c

fc1.bias f4 [400]
0.21097192 0.061886646 -0.02128455 0.15868929 0.019129127 0.024637576 0.007955058 -0.09690931
-0.052158456 -0.18455209 -0.03513344 -0.19457462 0.04012871 0.0006731246 0.05433257 -0.13352293
-0.0046596606 -0.036122724 -0.09290627 0.15649222 -0.16985537 0.12117425 -0.057626072 -0.1375843
-0.1673062 -0.19442329 -0.0504946 0.14163439 0.048623286 -0.18813957 0.13719842 0.16961339
0.052481662 0.19257146 0.13207863 0.01249234 0.16780986 -0.12683837 -0.032501854 -0.08858637
-0.018336996 -0.14511758 0.17168294 -0.042659514 0.103193864 0.1859159 0.086095214 0.053050376
0.19520232 -0.20184436 0.16273978 -0.1657067 0.18867405 0.039861552 -0.15214238 -0.06205083
-0.119782716 0.17737335 0.14398807 0.1291022 0.13034621 0.18984398 -0.15040652 0.10784173
0.029443895 0.10778696 0.09268781 0.034016557 0.16928588 -0.077802025 -0.12901123 -0.08129298
0.15437572 0.019086074 -0.122309595 0.07041102 -0.018476067 -0.050403982 0.18612492 0.11462909
0.16579333 -0.030928297 -0.10299591 -0.14636196 -0.022783143 -0.12598273 0.11035516 -0.17750981
-0.11648238 0.04218331 0.033839345 -0.019249229 -0.04436993 -0.059558533 -0.06057262 0.046121098
-0.14939171 -0.030831272 -0.010342706 0.020061811 0.115528 -0.18656905 0.095403984 0.11948974
0.08453181 -0.011258565 0.107040495 -0.15336151 -0.11659277 -0.016666489 -0.031434607 -0.2021016
0.13892904 0.13115907 -0.16110092 -0.022393167 -0.1865381 -0.066171505 0.020000799 0.22652742
0.14787595 0.10155549 0.027838422 -0.20831506 -0.0519078 0.20320144 0.004182786 -0.05196039
-0.10533191 0.089953005 0.16658515 -0.03582192 0.05074642 0.11596235 0.12603313 0.121952385
0.11655089 0.088762626 0.080270305 -0.1925687 -0.038474146 -0.042166475 0.081922345 -0.0474857
-0.20175111 0.145518 -0.05890853 -0.21880035 -0.086371735 0.07531757 -0.083201386 -0.21070014
0.054822896 0.060590588 0.21357459 -0.19956373 -0.04894704 -0.057505492 -0.02809288 0.06344317
0.1514642 -0.050546125 0.19847906 0.06053269 -0.11450173 0.010620536 0.114143275 0.112544775
-0.029440133 -0.026853235 -0.17139089 -0.073206924 -0.038394965 0.12109354 -0.010427542 0.13981995
-0.14392903 0.030170042 -0.17784265 -0.009361543 0.21874706 0.05113924 -0.11687768 -0.21585499
-0.034733694 -0.108688734 -0.22935288 0.09200181 0.009766099 -0.0060254084 0.16507974 -0.18637319
0.061522517 0.14868058 0.044387896 0.11291631 -0.076791726 -0.17877734 0.19505969 -0.14679737
-0.05500043 0.20039648 -0.10681515 -0.044153403 -0.13047421 0.009865262 -0.058075152 0.04030487
0.21671753 -0.13399857 0.1756975 -0.09501846 -0.19464734 0.086125895 -0.14905198 0.15404707
-0.059485953 -0.15117984 -0.11669754 0.039702088 -0.23159412 0.1340973 0.11126207 -0.19826873
0.08320751 -0.17717648 0.0402413 -0.06601132 0.11901411 -0.20208602 -0.05466149 -0.06917422
0.024602959 0.043776363 -0.17462045 0.036273155 0.02417909 -0.130726 0.0398083 0.15683465
0.10140826 0.10630992 -0.065270364 -0.13397819 0.100614145 0.05390799 0.0352525 0.12062834
-0.090271704 -0.17152297 -0.12955573 -0.18191038 0.13238762 0.14837293 -0.10827015 -0.026154902
00000000: 0609 583e da7c 7d3d f05c aebc 727f 223e
00000010: b0b4 9c3c bed4 c93c ee55 023c 6378 c6bd
00000020: 1ba4 55bd 39fb 3cbe 15e8 0fbd 923e 47be
00000030: 015e 243d a174 303a d48b 5e3d 3cba 08be
00000040: 11b0 98bb 6cf5 13bd a445 bebd 7f3f 203e
00000050: 91ee 2dbe 352a f83d 5109 6cbd e6e2 0cbe
00000060: 5152 2bbe e616 47be 6dd3 4ebd 9b08 113e
00000070: 3629 473d a9a7 40be be7d 0c3e 22af 2d3e
00000080: 03f7 563d 7431 453e 9f3f 073e acac 4c3c
00000090: 59d6 2b3e ebe1 01be aa20 05bd c56c b5bd
000000a0: 7837 96bc b499 14be a7cd 2f3e bebb 2ebd
000000b0: 4e57 d33d bd60 3e3e b052 b03d 5a4b 593d
000000c0: 1ee3 473e 4ab0 4ebe 42a5 263e 04af 29be
000000d0: c533 413e de45 233d 36cb 1bbe 0329 7ebd
000000e0: a450 f5bd 5ca1 353e 9c71 133e 5e33 043e
000000f0: 7a79 053e 7666 423e 2b04 1abe 20dc dc3d
00000100: 5334 f13c 69bf dc3d 1bd3 bd3d f254 0b3d
00000110: 4759 2d3e ab56 9fbd 851b 04be ef7c a6bd
00000120: ab14 1e3e 665a 9c3c 747d fabd a733 903d
00000130: 1f5b 97bc 6874 4ebd 8897 3e3e a8c2 ea3d
00000140: bac5 293e 575d fdbc 85ef d2bd e9df 15be
00000150: b7a3 babc 9e01 01be e301 e23d 22c5 35be
00000160: 508e eebd 68c8 2c3d 209b 0a3d 8fb0 9dbc
00000170: 3ebd 35bd a6f3 73bd ff1a 78bd 7ae9 3c3d
00000180: 24fa 18be dd91 fcbc 7474 29bc ab58 a43c
00000190: f299 ec3d f50b 3fbe 2a63 c33d 09b7 f43d
000001a0: 031f ad3d d875 38bc 0c38 db3d cd0a 1dbe
000001b0: 31c8 eebd 2988 88bc 93c1 00bd b9f3 4ebe
000001c0: 6a43 0e3e 904e 063e a4f7 24be e071 b7bc
000001d0: d803 3fbe ed84 87bd b7d8 a33c cef6 673e
000001e0: cb6c 173e 53fc cf3d 670d e43c 8b50 55be
000001f0: 469d 54bd 0a14 503e c10f 893b 6bd4 54bd
00000200: 42b8 d7bd 4839 b83d 4c95 2a3e 01ba 12bd
00000210: 7adb 4f3d ab7d ed3d d40e 013e 2cc2 f93d
00000220: 3cb2 ee3d 2ec9 b53d c264 a43d bb30 45be
00000230: 1197 1dbd c1b6 2cbd e7c6 a73d 5e80 42bd
00000240: d897 4ebe ac02 153e 124a 71bd 330d 60be
00000250: aae3 b0bd 1940 9a3d 7d65 aabd c7c1 57be
00000260: f98d 603d d62d 783d 4cb3 5a3e 6f5a 4cbe
00000270: b17c 48bd e18a 6bbd 0a23 e6bc 7eee 813d
00000280: 6e19 1b3e 7409 4fbd 183e 4b3e 20f1 773d
00000290: e27f eabd c201 2e3c f3c3 e93d e07d e63d
000002a0: 6f2c f1bc 51fb dbbc 1881 2fbe 83ed 95bd
000002b0: 0a44 1dbd e4ff f73d 48d8 2abc f62c 0f3e
000002c0: 2262 13be 2a27 f73c 621c 36be 2861 19bc
000002d0: 3bff 5f3e 6177 513d 915d efbd 1709 5dbe
000002e0: eb44 0ebd 3398 debd 7bdb 6abe 726b bc3d
000002f0: fd01 203c ca70 c5bb aa0a 293e 9dd8 3ebe
00000300: 09ff 7b3d b93f 183e 15d0 353d ab40 e73d
00000310: fb44 9dbd 6811 37be babd 473e 0d52 16be
00000320: 2248 61bd bc34 4d3e e7c1 dabd 33da 34bd
00000330: 089b 05be e8a1 213c 36e0 6dbd b816 253d
00000340: 33eb 5d3e ec36 09be 0cea 333e 0a99 c2bd
00000350: a251 47be c662 b03d 15a1 18be 84be 1d3e
00000360: 8ba7 73bd e3ce 1abe 1fff eebd a89e 223d
00000370: 0227 6dbe cd50 093e 5edd e33d f506 4bbe
00000380: b368 aa3d c06d 35be 10d4 243d f130 87bd
00000390: abbd f33d a3ef 4ebe bae4 5fbd 37ab 8dbd
000003a0: 258c c93c d84e 333d b4cf 32be 2993 143d
000003b0: 3a13 c63c 09dd 05be 070e 233d 4399 203e
000003c0: 22af cf3d 04b9 d93d 78ac 85bd 9431 09be
000003d0: ca0e ce3d a0ce 5c3d ed64 103d fe0b f73d
000003e0: 5fe0 b8bd b8a3 2fbe 42aa 04be b746 3abe
000003f0: 9f90 073e 13ef 173e bebc ddbd ce42 d6bc

fc2.weight f4 [300, 400]
0.009206671 0.030108128 -0.08073282 0.08372286 0.001140214 0.025890904 0.0894872 -0.019307582
0.09126294 -0.06254589 0.010040512 0.08037934 0.0035090868 -0.06471951 -0.011344723 -0.15319094
-0.012724177 0.045026187 0.04593019 0.04214889 -0.030714296 -0.04425947 0.07692152 -0.067351535
0.05440135 -0.02336654 0.00028705143 0.062394567 -0.050812915 -0.03508073 0.046343435 0.013564593
-0.018222734 0.014055275 0.051465053 0.0269354 -0.017174942 -0.0034801213 0.10082695 0.050730985
0.04516379 0.031864256 -0.093952306 0.08098544 -0.0716285 -0.043764237 0.04564133 0.086094104
0.03526303 -0.020438142 0.06593039 -0.06410409 -0.027518671 -0.058099072 0.030135076 -0.056212075
-0.065674715 -0.048175685 0.03125093 -0.062220898 -0.04458067 0.03998666 -0.0701585 -0.014851212
-0.0013411841 0.0756814 -0.0101301465 -0.0029046403 0.021020023 -0.051403075 -0.054340348 0.062108107
0.02422094 -0.020307273 0.14977056 0.047619976 0.08740565 0.07062439 -0.043512873 -0.047341116
0.00777693 -0.03349868 0.113774106 -0.012190423 -0.042592455 0.025820581 0.036280353 0.008285675
-0.06700088 -0.0397399 0.053671524 -0.048308507 0.025642283 -0.03197751 0.034891907 -0.024573073
-0.036757976 0.051582992 -0.071506955 0.03816518 0.01733859 -0.042030662 -0.060841367 0.0015051375
0.079092845 -0.019256476 0.038461864 0.018061908 0.005337266 0.13430639 -0.07568098 -0.04750226
0.026403721 0.07941972 -0.011584649 0.04247495 0.083775945 0.015424024 0.06352175 0.022157425
0.056197345 -0.064591356 -0.020451428 -0.009873975 -0.02829646 0.06948366 -0.05520077 0.07840722
-0.073298424 0.078225024 0.059749838 -0.06511452 0.032662064 0.023463402 0.04686191 0.119541444
0.059882585 0.047527675 -0.02255788 -0.077606305 0.090364784 0.0725311 -0.11370937 0.0018793278
-0.052451774 -0.018131541 -0.028850941 0.07753283 0.043087225 -0.017273758 0.018684605 -0.049412824
-0.029595718 -0.094534956 0.11708606 0.04278009 0.03399438 0.036795743 -0.020091763 -0.03212243
-0.067139484 0.009666296 0.114368655 -0.096106514 0.0017736388 0.033761475 -0.022821492 0.06096965
0.004732092 -0.031692494 0.052502483 -0.025089016 0.07209189 0.073817946 0.021352548 -0.068303116
0.07786475 0.024526408 0.032781947 -0.092314124 0.073010534 0.037787657 -0.031017393 0.02560185
-0.015734911 -0.088905506 -0.15000562 0.039991096 0.1507766 0.0013681707 0.13699088 0.051260058
-0.0002895754 -0.023156565 0.0017945339 -0.07997811 -0.04161493 -0.06366197 0.028958213 -0.0023112507
0.07209859 0.07451628 0.037193872 0.037283026 0.03098612 0.07372607 0.041466303 -0.016724063
-0.06407885 -0.0058453875 0.027767677 -0.026851093 -0.045892775 0.0701732 0.05106685 -0.036668293
-0.008624863 -0.104078025 -0.043149143 -0.055550672 -0.10006628 0.0525078 0.017972158 0.06750841
-0.08434663 -0.030681688 -0.0033562293 0.08903404 0.027337506 0.0017794413 0.028258929 -0.03384919
-0.038114972 -0.08292588 -0.019706355 0.027330505 0.020217786 -0.071960896 -0.004387776 0.06525953
-0.015653627 -0.062830456 -0.006860618 -0.09156025 -0.014058002 0.011329427 0.011673609 -0.015703466
-0.0082100965 0.10458762 -0.020429222 -0.084131315 0.07572257 -0.027682776 0.02662219 -0.020605626
00000000: 94d7 163c 52a5 f63c 4057 a5bd e476 ab3d
00000010: 3c73 953a 2919 d43c 1145 b73d ef2a 9ebc
00000020: 10e8 ba3d 0f18 80bd f680 243c ec9d a43d
00000030: b5f8 653b aa8b 84bd 38df 39bc 16de 1cbe
00000040: 1179 50bc 616d 383d 4b21 3c3d 51a4 2c3d
00000050: 8c9c fbbc 6b49 35bd 0889 9d3d 9aef 89bd
00000060: f3d3 5e3d 306b bfbc 647f 9639 7291 7f3d
00000070: 3421 50bd d0b0 0fbd 9dd2 3d3d 073e 5e3c
00000080: d847 95bc 1948 663c 05cd 523d a1a7 dc3c
00000090: 77b2 8cbc bf12 64bb 5c7e ce3d 4bcb 4f3d
000000a0: abfd 383d 1884 023d 116a c0bd b2db a53d
000000b0: f7b1 92bd 2142 33bd 67f2 3a3d 1b52 b03d
000000c0: f86f 103d e46d a7bc 8306 873d 0149 83bd
000000d0: d66e e1bc 4bf9 6dbd d6dd f63c a23e 66bd
000000e0: 7780 86bd de53 45bd fa00 003d 57db 7ebd
000000f0: 389a 36bd 0dc9 233d 42af 8fbd 7f52 73bc
00000100: acca afba dafe 9a3d eaf8 25bc c75b 3ebb
00000110: 2f32 ac3c 088c 52bd fc93 5ebd 1265 7e3d
00000120: fe6a c63c 705b a6bc 745d 193e 2a0d 433d
00000130: bc01 b33d 85a3 903d 8e3a 32bd c2e8 41bd
00000140: 9ed5 fe3b e935 09bd 6602 e93d 57ba 47bc
00000150: 6d75 2ebd af85 d33c b59a 143d a4c0 073c
00000160: c237 89bd 4ec6 22bd acd6 5b3d 24df 45bd
00000170: c40f d23c d9fa 02bd d1ea 0e3d 784d c9bc
00000180: 888f 16bd b048 533d 3d72 92bd 1753 1c3d
00000190: a909 8e3c 5828 2cbd cc34 79bd 0948 c53a
000001a0: 6efb a13d c2bf 9dbc 308a 1d3d 91f6 933c
000001b0: 3be4 ae3b 9d87 093e a1fe 9abd bb91 42bd
000001c0: 9e4c d83c cea6 a23d 8acd 3dbc 37fa 2d3d
000001d0: b992 ab3d 0cb5 7c3c b117 823d 7d83 b53c
000001e0: 302f 663d 7948 84bd c189 a7bc 74c6 21bc
000001f0: facd e7bc 734d 8e3d 341a 62bd f793 a03d
00000200: 7c1d 96bd 7134 a03d 3fbc 743d c35a 85bd
00000210: a8c8 053d 5236 c03c 46f2 3f3d 25d2 f43d
00000220: 7147 753d 61ac 423d 4ecb b8bc 0ef0 9ebd
00000230: 2c11 b93d 2f8b 943d 75e0 e8bd c753 f63a
00000240: acd7 56bd 9988 94bc cf58 ecbc 88c9 9e3d
00000250: 3b7c 303d b281 8dbc 7510 993c 1a65 4abd
00000260: b872 f2bc 8b9b c1bd d1ca ef3d 2d3a 2f3d
00000270: b13d 0b3d 22b7 163d 7b97 a4bc cf92 03bd
00000280: 6d80 89bd 625f 1e3c 1d3a ea3d 7ed3 c4bd
00000290: 7179 e83a 7949 0a3d 23f4 babc 50bb 793d
000002a0: aa0f 9b3b fdcf 01bd d80c 573d 7b87 cdbc
000002b0: eaa4 933d dd2d 973d 8aeb ae3c 81e2 8bbd
000002c0: 8e77 9f3d 9beb c83c 5d46 063d 300f bdbd
000002d0: 8c86 953d 3bc7 1a3d 3018 febc f9ba d13c
000002e0: 80e6 80bc 1714 b6bd 139b 19be b4cd 233d
000002f0: 2e65 1a3e 3154 b33a 5647 0c3e 11f6 513d
00000300: 27d2 97b9 d6b2 bdbc 9136 eb3a 90cb a3bd
00000310: 6b74 2abd 3561 82bd c639 ed3c 5a78 17bb
00000320: 6da8 933d fe9b 983d 9a58 183d 16b6 183d
00000330: 9bd6 fd3c b2fd 963d 92d8 293d e700 89bc
00000340: c63b 83bd aa8a bfbb 0a79 e33c d3f6 dbbc
00000350: 10fa 3bbd f7b6 8f3d 792b 513d 7e31 16bd
00000360: 4c4f 0dbc dc26 d5bd 28bd 30bd 1a89 63bd
00000370: 8def ccbd 6b12 573d 593a 933c d941 8a3d
00000380: edbd acbd 2a58 fbbc 2ff4 5bbb 7b57 b63d
00000390: e8f2 df3c 243c e93a 457f e73c 73a5 0abd
000003a0: 721e 1cbd 0bd5 a9bd 396f a1bc 39e4 df3c
000003b0: c59f a53c 3c60 93bd 55c7 8fbb caa6 853d
000003c0: 093c 80bc 41ad 80bd 09cf e0bb f183 bbbd
000003d0: 8953 66bc 109f 393c aa42 3f3c 8ea4 80bc
000003e0: a483 06bc 0932 d63d 2f5b a7bc 0a4d acbd
000003f0: 6f14 9b3d fdc6 e2bc c716 da3c 21cd a8bc

fc2.bias f4 [300]
0.016221926 0.010685669 0.033695694 0.05409075 0.05633039 0.04073872 0.0008002366 -0.010839501
0.039694034 0.028240623 0.012393013 0.021320535 0.05613915 0.0181337 0.042386625 -0.090562105
-0.027823444 0.04873788 0.05601364 0.05381455 -0.0052359295 -0.06903822 0.015548735 -0.015403522
0.07391825 0.029976243 -0.037655216 -0.082949296 -0.015559096 0.042368628 0.06902784 0.017220605
0.031829678 0.06408826 0.07048133 0.07428361 -0.052221067 0.035761937 -0.041777804 -0.036118582
-0.05975225 0.028436754 0.066474974 0.019634102 0.061493717 0.032902572 -0.036515743 -0.04517311
-0.017952293 0.0060214857 -0.015540385 -0.0051310947 -0.040268127 0.019910742 -0.021481592 -0.044925418
0.0311793 0.089179225 -0.0255247 -0.03565473 0.07903803 -0.018719608 -0.008170774 -0.0045548594
-0.052005626 0.020675555 0.00094843353 -0.039152164 0.0016641887 0.05729633 0.020629466 -0.008752575
-0.010216093 -0.04165065 0.015808232 0.066745676 0.0008940742 0.042172328 0.03949641 0.008464646
0.06189056 -0.049531247 -0.00587188 -0.06287515 -0.05269343 -0.04892702 -0.028860781 -0.0385888
-0.06910999 -0.019248502 0.012697314 -0.03865866 -0.026828233 -0.07382699 0.015467328 0.042298734
0.009814868 -0.048978962 0.027314356 -0.018562531 -0.042275455 -0.07153458 -0.019289464 -0.0015822842
-0.0261301 0.039759535 -0.05001685 -0.043368448 0.05034111 -0.0476673 0.079470776 0.0059247916
0.01431431 0.007612798 -0.007351048 -0.02185479 0.042316075 0.018899458 0.0038880194 -0.04502143
0.055079963 -0.024254624 -0.052363385 0.004174398 -0.03253805 0.023402575 -0.027360834 0.011127847
0.05895897 0.0080656465 0.023788705 -0.010624974 -0.020215848 -0.003107611 0.019169526 0.056257386
0.07577815 -0.049132563 -0.0071029435 -0.03085797 0.056391988 0.077259034 -0.017369358 -0.007909247
0.0017837887 0.06823869 -0.009531388 -0.045275405 -0.039624535 -0.024914127 0.07604627 0.0016269088
-0.04230049 -0.041276213 -0.01611161 0.005068378 -0.06799762 -0.023192173 0.05914713 0.06642088
-0.040351707 -0.031249175 0.0040796218 -0.006604486 -0.038068764 -0.06706108 0.03877069 0.00039295232
0.009583317 -0.014436675 0.00036510863 -0.01714621 -0.025830997 0.05712928 0.01683175 0.012259202
0.050777264 0.0049591274 0.022424093 -0.034446117 0.073282816 0.03731378 0.02619873 0.023469118
0.005247922 0.015329869 -0.014861978 -0.024338905 0.011999044 0.00035005884 0.014385614 0.025591008
0.003083551 0.014846429 0.03541579 0.020696694 -0.00738963 0.040313147 0.030522747 -0.021116033
-0.0076854234 0.03632593 0.003530649 0.01966686 0.009660817 0.025521263 -0.009300052 -0.03410854
0.0055672433 -0.007479149 0.0074249976 0.02782696 0.023695001 0.028097454 0.008865372 0.037217956
-0.04701488 -0.0017287717 -0.066842616 -0.046760313 0.044334386 0.029346708 -0.003846303 0.042596888
-0.022080878 -0.046499964 0.032120597 0.004084085 0.03083249 -0.049439758 0.056250528 0.028864365
-0.040233806 0.031101553 -0.0055657434 0.0045995787 -0.013341641 -0.028962592 0.018815251 0.013593756
-0.054524805 0.041095726 0.038824316 -0.06716867 -0.015306446 -0.040002517 0.020643065 -0.031240758
0.0037612556 0.04618368 -0.026119169 0.026105408 -0.0084278565 0.03144928 -0.029684966 -0.009462548
00000000: d8e3 843c f212 2f3c 7f04 0a3d 438e 5d3d
00000010: b2ba 663d a5dd 263d f8c6 513a 2a98 31bc
00000020: 3696 223d e158 e73c 100c 4b3c 67a8 ae3c
00000030: 2af2 653d 208d 943c 999d 2d3d a078 b9bd
00000040: feed e3bc 5fa1 473d 8f6e 653d a56c 5c3d
00000050: 2992 abbb e963 8dbd 1fc0 7e3c 0e5f 7cbc
00000060: 7462 973d bd90 f53c 5b3c 1abd 52e1 a9bd
00000070: 94eb 7ebc ba8a 2d3d 785e 8d3d 3a12 8d3c
00000080: d65f 023d b540 833d 8458 903d 0122 983d
00000090: c2e5 55bd 1c7b 123d 341f 2bbd 14f1 13bd
000000a0: c6be 74bd 32f4 e83c 0824 883d b2d7 a03c
000000b0: d6e0 7b3d d9c4 063d 8891 15bd 7007 39bd
000000c0: b010 93bc e24f c53b 199d 7ebc be22 a8bb
000000d0: 31f0 24bd da1b a33c 2afa afbc b703 38bd
000000e0: bb6b ff3c 99a3 b63d 2d19 d1bc b20a 12bd
000000f0: b1de a13d dd59 99bc b6de 05bc ee40 95bb
00000100: da03 55bd c85f a93c 4ca0 783a 055e 20bd
00000110: e820 da3a 8eaf 6a3d 20ff a83c f666 0fbc
00000120: 6661 27bc df99 2abd 4480 813c f5b1 883d
00000130: 4e60 6a3a e4bc 2c3d fdc6 213d 4caf 0a3c
00000140: f580 7d3d 47e1 4abd e668 c0bb b0c4 80bd
00000150: 11d5 57bd b367 48bd 726d ecbc 4a0f 1ebd
00000160: 8a89 8dbd 09af 9dbc 6508 503c 8b58 1ebd
00000170: e2c6 dbbc 9b32 97bd ad6a 7d3c 7041 2d3d
00000180: 8ace 203c 2a9e 48bd 5bc2 df3c 7310 98bc
00000190: 0729 2dbd b980 92bd f004 9ebc a664 cfba
000001a0: cb0e d6bc e5da 223d 78de 4cbd 1da3 31bd
000001b0: 7b32 4e3d c93e 43bd 93c1 a23d c124 c23b
000001c0: 9186 6a3c c774 f93b 0fe1 f0bb d108 b3bc
000001d0: 9f53 2d3d 09d3 9a3c 24ce 7e3b 6468 38bd
000001e0: 879b 613d a2b1 c6bc fd7a 56bd 63c9 883b
000001f0: 9e46 05bd c2b6 bf3c d423 e0bc 9351 363c
00000200: f67e 713d c625 043c 88e0 c23c 5f14 2ebc
00000210: b59b a5bc 10a9 4bbb 6909 9d3c 256e 663d
00000220: 9331 9b3d 3a3f 49bd cfbf e8bb dac9 fcbc
00000230: 49fb 663d fc39 9e3d 2f4a 8ebc c995 01bc
00000240: 04ce e93a bac0 8b3d 8a29 1cbc b472 39bd
00000250: 564d 22bd b618 ccbc 26be 9b3d 003e d53a
00000260: 4743 2dbd 3f11 29bd 7ffc 83bc a314 a63b
00000270: 5642 8bbd 83fd bdbc 4344 723d ac07 883d
00000280: d547 25bd 45fe ffbc 59ae 853b 726a d8bb
00000290: feed 1bbd 5257 89bd 04ce 1e3d 2b05 ce39
000002a0: 5803 1d3c ce87 6cbc 0d6c bf39 3576 8cbc
000002b0: 879b d3bc 6400 6a3d bde2 893c d2da 483c
000002c0: d2fb 4f3d 2d80 a23b bbb2 b73c 5f17 0dbd
000002d0: 4d15 963d 56d6 183d b89e d63c 4f42 c03c
000002e0: c3f6 ab3b 222a 7b3c a77f 73bc 6262 c7bc
000002f0: a397 443c 1a88 b739 a3b1 6b3c 3ca4 d13c
00000300: 6715 4a3b 703e 733c 2610 113d 1d8c a93c
00000310: b624 f2bb 661f 253d d70a fa3c 88fb acbc
00000320: 01d6 fbbb 80ca 143d 7662 673b 651c a13c
00000330: 6748 1e3c f811 d13c 3f5f 18bc 65b5 0bbd
00000340: 6c6d b63b a613 f5bb 654d f33b 5df5 e33c
00000350: 051c c23c a22c e63c 1140 113c db71 183d
00000360: ad92 40bd f497 e2ba c8e4 88bd be87 3fbd
00000370: f997 353d 8268 f03c 4212 7cbb 137a 2e3d
00000380: f5e2 b4bc bf76 3ebd e390 033d cad3 853b
00000390: 6b94 fc3c 5881 4abd f466 663d f674 ec3c
000003a0: 34cc 24bd afc8 fe3c d760 b6bb 10b8 963b
000003b0: e696 5abc f542 edbc 7122 9a3c 58b8 5e3c
000003c0: 6755 5fbd fe53 283d 3f06 1f3d ba8f 89bd
000003d0: e3c7 7abc aed9 23bd a51b a93c 9eec ffbc
000003e0: 667f 763b 192b 3d3d def7 d5bc 02db d53c
000003f0: fe14 0abc f6d0 003d e32d f3bc ce08 1bbc

fc3.weight f4 [2, 300]
-0.03730329 -0.050634958 0.06885791 -0.005654571 0.09066152 -0.069102414 -0.054164354 -0.07214616
0.018342372 -0.12736699 0.03239085 0.001832778 -0.00801573 -0.014943546 0.017235333 -0.059839614
-0.092834085 0.106694855 0.060906086 0.07253634 0.045780856 -0.09558073 0.00022948803 -0.02241854
0.024671027 -0.119054034 -0.048408024 -0.15479527 -0.021772 -0.029836452 0.021520764 -0.13645811
-0.056508645 0.05014929 0.019151589 -0.00033549522 -0.11491389 -0.005932411 0.059072472 -0.06530969
-0.06706645 0.085134886 0.019519078 0.016848506 0.039642423 0.018655354 -0.06811285 -0.018319476
0.050694596 -0.09045041 -0.06989729 -0.18001348 -0.10050442 -0.029411511 0.055520777 -0.114466
-0.09980241 0.06552338 -0.050127026 -0.043610733 -0.13660508 0.044744335 -0.013296276 0.028830254
-0.12890735 0.011672096 -0.059990708 0.1976245 0.06746293 0.13141415 -0.06505191 0.01773683
0.05702558 -0.078989014 -0.035077434 0.031209625 0.015735617 0.052050866 0.023493411 -0.014089675
-0.0021095446 -0.000674899 0.03400047 -0.07304578 -0.060313866 -0.027718615 -0.127949 -0.18203478
-0.15421702 -0.11075779 -0.15946467 -0.09657692 -0.13377827 -0.047560576 -0.041439958 0.02758334
-0.032613363 -0.114183314 0.03115314 -0.045165177 -0.033585954 -0.07805262 0.06354127 0.044524238
0.070974596 0.067088485 -0.082992174 -0.017274618 -0.11370607 -0.045938205 0.026148332 0.06690589
-0.07363471 -0.16305047 -0.024842726 -0.06150598 -0.15167587 -0.08503062 -0.05692594 -0.07332805
0.03426943 -0.04469337 -0.054088343 -0.079014316 -0.07511156 0.025809549 -0.07907082 -0.14453489
0.036971737 -0.106530026 -0.068799846 -0.035333972 -0.096330315 0.06046693 -0.052952643 0.10424008
4.3846518e-05 0.06301325 -0.009904592 -0.13466576 0.035863385 0.009568159 -0.035862733 -0.04683557
-0.115362085 -0.016472468 -0.029693767 -0.0652174 -0.10185818 -0.035998024 0.05850945 0.05910156
0.13174686 -0.031084923 -0.0738977 0.030274253 -0.10538295 -0.09092848 -0.027551446 0.05861261
-0.05637524 -0.025230326 -0.03459001 -0.025376236 -0.008543016 -0.054808218 -0.10744339 -0.012675155
0.08272349 -0.037312847 -0.046815693 -0.014445648 -0.028067784 0.024162378 -0.07068783 -0.0531194
-0.124196544 -0.0027140959 0.0291403 -0.04009949 0.044249255 0.00488108 -0.07437048 0.013477992
0.06000468 -0.059959203 -0.07061437 -0.03327919 -0.03972481 0.06427014 -0.10819131 -0.07209319
-0.049378302 -0.021396674 -0.052020237 0.03868634 -0.012522908 0.063467845 0.017811162 -0.0466218
-0.110964246 -0.06602367 -0.093742914 -0.0057722284 -0.0041880636 -0.052648623 -0.045882933 -0.053489316
0.106214 -0.07379934 0.025756424 -0.03784208 0.030640893 0.09822132 0.024178082 0.033203647
-0.051126484 -0.056752175 -0.04712404 -0.09034333 -0.0074503664 0.031879466 -0.046256524 -0.10499832
-0.05324396 -0.11479689 0.026408724 -0.03650792 0.08932061 0.08729067 0.021229818 -0.016924106
-0.11630694 0.0847251 -0.0850045 -0.05686316 0.034753077 -0.07802219 -0.05071961 -0.070080996
0.07628968 0.09795414 -0.029979015 -0.023579372 -0.06103154 -0.03876178 -0.1628043 -0.10480028
0.023432106 0.045122053 -0.104544185 0.043894287 -0.1869148 -0.12718359 0.024727209 -0.018491609
00000000: 56cb 18bd 9a66 4fbd 6005 8d3d fb49 b9bb
00000010: bfac b93d 9185 8dbd 71db 5dbd 5ec1 93bd
00000020: be42 963c 7e6c 02be 45ac 043d d339 f03a
00000030: 6954 03bc c6d5 74bc 1d31 8d3c 621a 75bd
00000040: cc1f bebd d582 da3d a978 793d ef8d 943d
00000050: b584 3b3d d4bf c3bd b9a2 7039 16a7 b7bc
00000060: e51a ca3c 9ad2 f3bd 7e47 46bd a782 1ebe
00000070: 315b b2bc 936b f4bc 504c b03c adbb 0bbe
00000080: 9c75 67bd 5869 4d3d cbe3 9c3c 68e5 afb9
00000090: f957 ebbd ac64 c2bb faf5 713d 16c1 85bd
000000a0: 235a 89bd 335b ae3d 79e6 9f3c e105 8a3c
000000b0: 1860 223d 1dd3 983c c07e 8bbd ba12 96bc
000000c0: 23a5 4f3d 113e b9bd 4f26 8fbd 7455 38be
000000d0: 43d5 cdbd 69f0 f0bc c169 633d 266d eabd
000000e0: 3565 ccbd 1f31 863d ff51 4dbd 2ba1 32bd
000000f0: 34e2 0bbe d645 373d a0d8 59bc 6d2d ec3c
00000100: 4a00 04be 523c 3f3c d1b8 75bd 145e 4a3e
00000110: 012a 8a3d 6e91 063e f039 85bd d44c 913c
00000120: a893 693d fec4 a1bd 5bad 0fbd 54ab ff3c
00000130: fbe7 803c 4a33 553d 4175 c03c 61d8 66bc
00000140: 4940 0abb b5eb 30ba 1444 0b3d 0799 95bd
00000150: ac0b 77bd 2612 e3bc 1005 03be 5367 3abe
00000160: 11eb 1dbe fbd4 e2bd b54a 23be 1fca c5bd
00000170: 2cfd 08be e1ce 42bd f2bc 29bd 75f6 e13c
00000180: 9795 05bd f1d8 e9bd df34 ff3c 1fff 38bd
00000190: 6d91 09bd 0dda 9fbd ed21 823d 0c5f 363d
000001a0: 215b 913d b065 893d cdf7 a9bd 8083 8dbc
000001b0: bade e8bd b329 3cbd 0735 d63c f505 893d
000001c0: cbcd 96bd b4f6 26be f982 cbbc b2ed 7bbd
000001d0: eb50 1bbe 8924 aebd 2d2b 69bd 042d 96bd
000001e0: 1a5e 0c3d 6510 37bd bd8b 5dbd 42d2 a1bd
000001f0: 17d4 99bd 8c6e d33c e2ef a1bd f400 14be
00000200: ad6f 173d 6a2c dabd efe6 8cbd 5bba 10bd
00000210: d448 c5bd 2cac 773d dfe4 58bd d37b d53d
00000220: d7e7 3738 170d 813d df46 22bc d2e5 09be
00000230: 7ce5 123d c4c3 1c3c cde4 12bd a8d6 3fbd
00000240: f542 ecbd 45f1 86bc 5840 f3bc b390 85bd
00000250: 059b d0bd aa72 13bd 9ba7 6f3d 7a14 723d
00000260: a6e8 063e cfa5 febc ad57 97bd b601 f83c
00000270: 04d3 d7bd b638 babd 92b3 e1bc c713 703d
00000280: b9e9 66bd d4af cebc 41ae 0dbd d3e1 cfbc
00000290: 02f8 0bbc 957e 60bd 480b dcbd 74ab 4fbc
000002a0: ef6a a93d 5bd5 18bd d0c1 3fbd 70ad 6cbc
000002b0: 69ee e5bc 2ef0 c53c c8c4 90bd ba93 59bd
000002c0: c25a febd f9de 31bb a3b7 ee3c 5d3f 24bd
000002d0: b53e 353d 77f1 9f3b 8d4f 98bd ccd2 5c3c
000002e0: 78c7 753d c897 75bd 449e 90bd c34f 08bd
000002f0: 7bb6 22bd 10a0 833d 6893 ddbd 98a5 93bd
00000300: e740 4abd 1448 afbc 2c13 55bd 9175 1e3d
00000310: e22c 4dbc 6efb 813d b7e8 913c 80f6 3ebd
00000320: 3941 e3bd 6b37 87bd 49fc bfbd f624 bdbb
00000330: 063c 89bb 15a6 57bd beef 3bbd 9d17 5bbd
00000340: ba86 d93d 1c24 97bd 23ff d23c 4c00 1bbd
00000350: 9c02 fb3c 4228 c93d 1d11 c63c 8c00 083d
00000360: 016a 51bd f874 68bd 2305 41bd ec05 b9bd
00000370: 3422 f4bb 0b94 023d 7b77 3dbd 5c09 d7bd
00000380: 5716 5abd a21a ebbd 1c57 d83c 5489 15bd
00000390: b9ed b63d 73c5 b23d 28ea ad3c 6ca4 8abc
000003a0: 5532 eebd 5a84 ad3d d716 aebd 58e9 68bd
000003b0: 3e59 0e3d 19ca 9fbd 5ebf 4fbd a086 8fbd
000003c0: c43d 9c3d 2e9c c83d 8d96 f5bc 8729 c1bc
000003d0: 35fc 79bd acc4 1ebd 2cb6 26be 87a1 d6bd
000003e0: b0f4 bf3c e7d1 383d 431b d6bd 7fca 333d
000003f0: 9866 3fbe 6a3c 02be b790 ca3c b77b 97bc

fc3.bias f4 [2]
0.05016949 0.018469555
00000000: 867e 4d3d 774d 973c
